…
ps://localhost:8080/"},"id":"0F_KzS7DMWtf","outputId":"5f7ff092-e22e-4af4-906b-334c1115f824","executionInfo":{"status":"ok","timestamp":1715740512790,"user_tz":240,"elapsed":1070,"user":{"displayName":"Rafiz Sadique","userId":"04609178330490164874"}}},"execution_count":null,"outputs":[{"output_type":"stream","name":"stdout","text":["Model: \"sequential\"\n","_________________________________________________________________\n"," Layer (type)                Output Shape              Param #   \n","=================================================================\n"," lstm (LSTM)                 (None, 50, 64)            42240     \n","                                                                 \n"," dropout (Dropout)           (None, 50, 64)            0         \n","                                                                 \n"," lstm_1 (LSTM)               (None, 64)                33024     \n","                                                                 \n"," dropout_1 (Dropout)         (None, 64)                0         \n","                                                                 \n"," dense (Dense)               (None, 32)                2080      \n","                                                                 \n"," dense_1 (Dense)             (None, 1)                 33        \n","                                                                 \n","=================================================================\n","Total params: 77377 (302.25 KB)\n","Trainable params: 77377 (302.25 KB)\n","Non-trainable params: 0 (0.00 Byte)\n","_________________________________________________________________\n"]}]},{"cell_type":"code","source":["# Train and evaluate for ea
…
8zm","executionInfo":{"status":"ok","timestamp":1715746108792,"user_tz":240,"elapsed":7926,"user":{"displayName":"Rafiz Sadique","userId":"04609178330490164874"}},"outputId":"f8d1fa56-a12b-4d26-c075-bfca3ddea907"},"execution_count":null,"outputs":[{"output_type":"stream","name":"stdout","text":["Model Summary for Weekly Model:\n","Model: \"sequential_1\"\n","_________________________________________________________________\n"," Layer (type)                Output Shape              Param #   \n","=================================================================\n"," lstm_2 (LSTM)               (None, 50, 64)            42240     \n","                                                                 \n"," dropout_2 (Dropout)         (None, 50, 64)            0         \n","                                                                 \n"," lstm_3 (LSTM)               (None, 64)                33024     \n","                                                                 \n"," dropout_3 (Dropout)         (None, 64)                0         \n","                                                                 \n"," dense_2 (Dense)             (None, 32)                2080      \n","                                                                 \n"," dense_3 (Dense)             (None, 1)                 33        \n","                                                                 \n","=================================================================\n","Total params: 77377 (302.25 KB)\n","Trainable params: 77377 (302.25 KB)\n","Non-trainable params: 0 (0.00 Byte)\n","_________________________________________________________________\n","Model Architecture for Weekly Model:\n"]},{"output_type":"display_data","data":{"image/png":"…\n","text/plain":["<IPython.core.display.Image object>"]},"metadata":{}},{"output_type":"stream","name":"stdout","text":["Model Summary for Monthly Model:\n","Model: \"sequential_2\"\n","_________________________________________________________________\n"," Layer (type)                Output Shape              Param #   \n","=================================================================\n"," lstm_4 (LSTM)               (None, 50, 64)            42240     \n","                                                                 \n"," dropout_4 (Dropout)         (None, 50, 64)            0         \n","                                                                 \n"," lstm_5 (LSTM)               (None, 64)                33024     \n","                                                                 \n"," dropout_5 (Dropout)         (None, 64)                0         \n","                                                                 \n"," dense_4 (Dense)             (None, 32)                2080      \n","                                                                 \n"," dense_5 (Dense)             (None, 1)                 33        \n","                                                                 \n","=================================================================\n","Total params: 77377 (302.25 KB)\n","Trainable params: 77377 (302.25 KB)\n","Non-trainable params: 0 (0.00 Byte)\n","_________________________________________________________________\n","Model Architecture for Monthly Model:\n"]},{"output_type":"display_data","data":{"image/png":"…\n","text/plain":["<IPython.core.display.Image object>"]},"metadata":{}},{"output_type":"stream","name":"stdout","text":["Model Summary for Quarterly Model:\n","Model: \"sequential_3\"\n","_________________________________________________________________\n"," Layer (type)                Output Shape              Param #   \n","=================================================================\n"," lstm_6 (LSTM)               (None, 50, 64)            42240     \n","                                                                 \n"," dropout_6 (Dropout)         (None, 50, 64)            0         \n","                                                                 \n"," lstm_7 (LSTM)               (None, 64)                33024     \n","                                                                 \n"," dropout_7 (Dropout)         (None, 64)                0         \n","                                                                 \n"," dense_6 (Dense)             (None, 32)                2080      \n","                                                                 \n"," dense_7 (Dense)             (None, 1)                 33        \n","                                                                 \n","=================================================================\n","Total params: 77377 (302.25 KB)\n","Trainable params: 77377 (302.25 KB)\n","Non-trainable params: 0 (0.00 Byte)\n","_________________________________________________________________\n","Model Architecture for Quarterly Model:\n"]},{"output_type":"
…
